sem_hierarchical_eiq_final.onnx (onnx, 310190 bytes, 22 tensors)

backbone.1.block.1.fc1.bias f4 [8]
-1.7194443e-09 -2.3166298e-09 -0.00016355385 -1.8774664e-09 -1.2891413e-09 1.7532132e-08 -5.6570957e-09 9.6723e-11
00000000: 9151 ecb0 9532 1fb1 a77f 2bb9 bd04 01b1
00000010: a12d b1b0 9199 9632 5760 c2b1 35b2 d42e

backbone.1.block.1.fc2.bias f4 [16]
0.5732315 0.6494166 0.3857393 -1.1220376 -0.7096765 1.3570935 -0.36515263 -0.49021682
0.5725324 -0.35525897 0.63340724 -0.23714946 -0.43279466 -0.12355329 0.16107225 -0.3726333
00000000: 4dbf 123f 2b40 263f 9f7f c53e ee9e 8fbf
00000010: 5cad 35bf 3db5 ad3f 49f5 babe b3fd fabe
00000020: 7c91 123f 81e4 b5be fa26 223f 4fd7 72be
00000030: 4397 ddbe 8209 fdbd 20f0 243e cbc9 bebe

backbone.4.block.2.fc1.bias f4 [24]
-2.9211575e-09 -6.3220145e-09 -1.1813039e-09 -4.2175796e-09 -2.133115e-09 -4.7858895e-09 -3.2383856e-09 7.1056134e-09
-2.6545996e-10 -5.92601e-09 0.20429699 -1.9252493e-09 -3.904668e-09 -2.8423386e-08 7.3140827e-10 -3.4446065e-10
-1.8276763e-09 -4.4766733e-09 -1.0233917e-09 -1.2708817e-09 2.3359028e-09 -8.444231e-09 -4.032996e-09 -1.12403364e-10
00000000: 8cbd 48b1 0739 d9b1 705b a2b0 39ea 90b1
00000010: 2896 12b1 2171 a4b1 488a 5eb1 a325 f431
00000020: 2bf0 91af bc9d cbb1 3b33 513e 584d 04b1
00000030: d329 86b1 b027 f4b2 480c 4930 875e bdaf
00000040: a531 fbb0 3cd1 99b1 65a7 8cb0 2dab aeb0
00000050: a385 2031 1f12 11b2 9c92 8ab1 782d f7ae

backbone.5.block.2.fc1.bias f4 [64]
-0.022934437 0.29263088 -0.0018752518 0.093017474 0.12570944 0.12601209 0.20298654 0.113313235
-0.13775975 -0.10255359 0.19066218 0.171825 -0.34301493 -0.09820839 0.09123381 0.041753985
-0.07202726 0.380921 0.10528686 -0.020655932 0.08346864 0.037050266 0.12770712 0.4330327
0.06386521 0.14804776 0.17241415 -5.663128e-06 0.20862669 -0.036011867 -0.14444089 0.14524592
-0.07322031 -0.013894036 0.104201734 0.10838431 -0.035382856 0.28660825 -0.016911568 -0.059459552
0.5596158 0.21611916 0.21690828 0.0962257 0.3050197 0.027057333 -0.08913405 0.035097867
-0.026131697 0.14278045 -0.10592395 0.04843199 0.021615816 0.013176782 0.20392992 0.11722167
-0.040036246 0.03948749 0.530995 0.25687864 0.055642776 0.060659364 -0.0077943974 0.1469477
00000000: 00e1 bbbc b7d3 953e 02cb f5ba f27f be3d
00000010: fab9 003e 5009 013e b4db 4f3e c510 e83d
00000020: e410 0dbe 9e07 d2bd f23c 433e e5f2 2f3e
00000030: a79f afbe 7b21 c9bd cbd8 ba3d 3a06 2b3d
00000040: 0783 93bd 1408 c33e a3a0 d73d a136 a9bc
00000050: 9bf1 aa3d 05c2 173d a8c5 023e 76b6 dd3e
00000060: c3cb 823d d599 173e 568d 303e e605 beb6
00000070: 3ca2 553e 2e81 13bd 50e8 13be 59bb 143e
00000080: 88f4 95bd d0a3 63bc b867 d53d 98f8 dd3d
00000090: 9ded 10bd 51be 923e 218a 8abc dc8b 73bd
000000a0: fb42 0f3f 574e 5d3e 341d 5e3e fb11 c53d
000000b0: 8b2b 9c3e 57a7 dd3c ea8b b6bd c8c2 0f3d
000000c0: 2412 d6bc 0a35 123e a8ee d8bd 9f60 463d
000000d0: a713 b13c 6ee3 573c 01d3 503e ea11 f03d
000000e0: 0cfd 23bd a2bd 213d 4aef 073f 9985 833e
000000f0: aee9 633d f475 783d 2568 ffbb 7579 163e

backbone.6.block.2.fc1.bias f4 [64]
0.0053972006 0.06957804 -0.05477841 0.22562042 0.1299805 0.17132594 0.02576717 -0.026809076
0.19302829 0.29579428 0.06744269 0.14422287 0.12499542 0.07708041 -0.017005792 -0.050428726
0.030686505 0.20968525 0.36498848 0.30866235 -0.03850693 0.16657035 0.06008171 0.15399316
-0.06157667 0.2357035 0.05591654 -0.011314542 0.06747028 0.21400805 -0.1433354 0.004882285
-0.05862956 0.05559766 0.024574284 0.13301314 0.6094873 0.15338989 0.05823904 0.22720262
0.18886581 0.06803061 0.021388756 0.1482355 0.20087546 0.27889442 0.01442696 0.11399149
0.09276679 0.036088843 0.11387046 0.3213216 -0.020722378 -0.16900463 -0.24934539 0.3631266
0.016568257 0.07135381 0.05916322 0.039023362 0.12377622 0.21287176 0.03115351 0.037778217
00000000: 00db b03b ee7e 8e3d 535f 60bd 0a09 673e
00000010: 9c19 053e 1170 2f3e ac15 d33c b59e dbbc
00000020: 35a9 453e 5972 973e 651f 8a3d 29af 133e
00000030: 99fd ff3d 56dc 9d3d bb4f 8bbc 5a8e 4ebd
00000040: 4462 fb3c bbb7 563e c5df ba3e fe08 9e3e
00000050: 71b9 1dbd 6b91 2a3e 3d18 763d 62b0 1d3e
00000060: d137 7cbd 425c 713e be08 653d a160 39bc
00000070: dc2d 8a3d ed24 5b3e 84c6 12be 93fb 9f3b
00000080: 8d25 70bd 5fba 633d 0250 c93c 9934 083e
00000090: 5c07 1c3f 3d12 1d3e 0f8c 6e3d cea7 683e
000000a0: 0a66 413e a253 8b3d 7937 af3c 0ccb 173e
000000b0: 4cb2 4d3e 40cb 8e3e 0e5f 6c3c 5f74 e93d
000000c0: 84fc bd3d e5d1 133d ea34 e93d 4484 a43e
000000d0: fac1 a9bc 8d0f 2dbe 6654 7fbe bbeb b93e
000000e0: 27ba 873c f221 923d 2255 723d f6d6 1f3d
000000f0: 637e fd3d 0efb 593e a535 ff3c 55bd 1a3d

backbone.7.block.2.fc1.bias f4 [32]
1.6006585e-10 -3.8677523e-09 -9.089708e-09 -1.8355921e-07 -2.1508043e-07 8.6880175e-10 -3.6121296e-08 -7.729239e-09
2.635934e-08 0.035964217 -0.010243735 -2.7661121e-08 0.3147161 2.1199943e-08 1.5020435e-08 0.026897604
-1.7561161e-06 2.0361577e-08 -0.064548865 2.7899032e-08 0.02142981 9.343786e-09 -0.038791098 -4.9815515e-08
-1.8828532e-08 1.2270543e-09 -3.0889797e-08 -8.2685725e-09 -1.8231727e-09 4.3546144e-09 0.034200244 1.7295692e-08
00000000: 88fe 2f2f 1ce5 84b1 f528 1cb2 5f18 45b4
00000010: dcf0 66b4 7dd0 6e30 c923 1bb3 8dc9 04b2
00000020: cd6c e232 374f 133d 57d5 27bc 739b edb2
00000030: 7822 a13e 2b1b b632 4906 8132 5d58 dc3c
00000040: b1b3 ebb5 95e7 ae32 3232 84bd 9fa6 ef32
00000050: 928d af3c 6886 2032 6ae3 1ebd bdf4 55b3
00000060: 61bc a1b2 23a5 a830 b1ab 04b3 910d 0eb2
00000070: 3093 fab0 989f 9531 8e15 0c3d a191 9432

backbone.8.block.2.fc1.bias f4 [40]
0.1680222 0.081354305 0.3212593 0.5222832 0.0676905 0.23224704 0.11917585 0.17388129
0.10452166 -0.03775658 0.053283416 0.11018506 0.36113003 0.25794333 0.2988168 0.26859692
0.06534313 0.28718114 0.2652161 0.025961498 0.1425206 0.23169431 0.39703533 0.51996726
0.29655054 0.10159168 0.27737966 0.29124582 0.44892162 0.063217536 0.23517752 0.19682252
0.4860161 0.09598509 0.14760624 0.32572675 0.27231118 0.39626724 0.3584634 0.22596893
00000000: 030e 2c3e 169d a63d 197c a43e 5ab4 053f
00000010: 51a1 8a3d 2bd2 6d3e 7812 f43d f00d 323e
00000020: 740f d63d a5a6 1abd b63f 5a3d b4a8 e13d
00000030: 09e6 b83e 2611 843e 84fe 983e 8985 893e
00000040: 9ed2 853d 6809 933e 68ca 873e 35ad d43c
00000050: ecf0 113e 4641 6d3e 3748 cb3e 931c 053f
00000060: 79d5 973e 4c0f d03d b504 8e3e 2c1e 953e
00000070: 0ed9 e53e 3278 813d 60d2 703e d88b 493e
00000080: 1ad7 f83e d593 c43d 1726 173e a8c5 a63e
00000090: 5f6c 8b3e 8ae3 ca3e 8488 b73e 6664 673e

head1.fc3.bias f4 [2]
0.0856449 -0.05779461
00000000: 9866 af3d 0aba 6cbd

head2.2.bias f4 [3]
0.0103000505 -0.015783688 0.057138003
00000000: 8bc1 283c cb4c 81bc 8a09 6a3d

head3.2.bias f4 [2]
0.0044378694 -0.027951408
00000000: 8c6b 913b 5afa e4bc

head4.2.bias f4 [2]
0.004006759 0.045772985
00000000: 214b 833b 747c 3b3d

head5.2.bias f4 [2]
0.06503505 -0.004299592
00000000: 1931 853d 98e3 8cbb

backbone.0.0.weight_bias f4 [16]
4.523014 2.543999 2.8270583 -2.6394703 2.763618 2.7288985 0.24306312 -0.029034901
2.6689696 2.675044 2.6655228 -0.8934031 0.34013894 0.51019484 1.1102512 -2.5127428
00000000: 88bc 9040 e1d0 2240 86ee 3440 15ed 28c0
00000010: 1edf 3040 46a6 2e40 8ae5 783e 9ada edbc
00000020: 66d0 2a40 ec33 2b40 ed97 2a40 11b6 64bf
00000030: b126 ae3e 219c 023f b61c 8e3f c7d0 20c0

backbone.1.block.0.0.weight_bias f4 [16]
0.418975 1.7598339 3.4714556 0.15667887 -0.06184256 3.0022933 0.082374066 0.6457906
1.9597585 0.4328534 0.16218495 0.07863855 0.20578393 0.32656357 0.027628869 1.5882471
00000000: e483 d63e 3d42 e13f 542c 5e40 6d70 203e
00000010: a04e 7dbd 9325 4040 bcb3 a83d 8852 253f
00000020: 5ed9 fa3f f69e dd3e d013 263e 400d a13d
00000030: 06b9 523e 5733 a73e f055 e23c ae4b cb3f

backbone.1.block.2.0.weight_bias f4 [16]
3.1403987 -6.3789945 -4.011451 -2.0613124 -0.79280055 0.57320356 -6.8702216 -0.36323535
-7.7824244 -2.7848861 0.42020756 -2.3324528 -2.7519424 -1.9523631 -0.83619547 2.045432
00000000: 4bfc 4840 b920 ccc0 ce5d 80c0 8bec 03c0
00000010: faf4 4abf 78bd 123f dbd8 dbc0 fcf9 b9be
00000020: 9f09 f9c0 933b 32c0 7225 d73e e846 15c0
00000030: d31f 30c0 09e7 f9bf e810 56bf 5ce8 0240

backbone.2.block.2.0.weight_bias f4 [24]
-0.6562454 -1.0421956 5.2684054 -0.5822642 -1.7472433 -3.5170937 1.3246304 6.7719865
-3.5292525 -1.6967034 -0.1448547 1.8947014 0.15291429 0.71121037 2.5127006 1.5873268
2.0364254 0.20539787 1.9051837 1.5774037 -1.640672 -0.9607684 0.031941287 -3.6250846
00000000: b3ff 27bf aa66 85bf c796 a840 440f 15bf
00000010: aba5 dfbf 1018 61c0 7d8d a93f 1db4 d840
00000020: 46df 61c0 942d d9bf ca54 14be 9385 f23f
00000030: 9095 1c3e e211 363f 16d0 2040 862d cb3f
00000040: cb54 0240 d253 523e 0fdd f33f 5de8 c93f
00000050: 8a01 d2bf ebf4 75bf ded4 023d 6301 68c0

backbone.3.block.2.0.weight_bias f4 [24]
-4.361722 0.42291227 1.6237582 0.36699507 0.6322088 3.6730502 -0.8035877 2.2259104
-0.54564387 -0.21566492 0.14530903 -0.9704402 -1.276806 -1.7253419 -1.2012529 1.5391141
-1.2878028 -3.424283 0.40973955 -3.0660107 -0.60744977 0.30736086 0.85429156 -0.2404382
00000000: 3a93 8bc0 f587 d83e 4fd7 cf3f c7e6 bb3e
00000010: 70d8 213f 4113 6b40 ecb7 4dbf 5175 0e40
00000020: 51af 0bbf 44d7 5cbe e4cb 143e c56e 78bf
00000030: 616e a3bf 01d8 dcbf a8c2 99bf b101 c53f
00000040: b9d6 a4bf 7427 5bc0 62c9 d13e 8539 44c0
00000050: d481 1bbf 675e 9d3e dab2 5a3f 6e35 76be

backbone.4.block.3.0.weight_bias f4 [40]
0.10858774 -2.0384114 -0.54307026 -2.2434087 0.99256986 1.2258394 -0.6254872 -0.5519553
2.2997732 0.4893211 0.8273997 1.4890517 -0.76663446 -3.4199865 2.5758667 0.010680788
2.3663492 -3.6818447 3.1640313 0.46771407 -0.1958895 -0.66834635 0.589704 -1.4934309
0.5761947 0.87411463 1.5319289 -0.6720209 -1.1685219 2.4986148 0.24701051 -0.43323523
-0.5631843 1.2379911 -2.583144 -0.11437956 -1.777546 1.5382873 -1.2432122 -0.90475124
00000000: 4063 de3d 5575 02c0 a706 0bbf 0294 0fc0
00000010: 0f19 7e3f 4ee8 9c3f ee1f 20bf f14c 0dbf
00000020: 7c2f 1340 4c88 fa3e 77d0 533f 3f99 be3f
00000030: 2842 44bf 0fe1 5ac0 00db 2440 79fe 2e3c
00000040: 4472 1740 58a3 6bc0 7d7f 4a40 3878 ef3e
00000050: 4297 48be bf18 2bbf d7f6 163f be28 bfbf
00000060: 7f81 133f fac5 5f3f 3f16 c43f 9009 2cbf
00000070: 2092 95bf 4ee9 1f40 53f0 7c3e 02d1 ddbe
00000080: d92c 10bf 7e76 9e3f 3b52 25c0 d53f eabd
00000090: a186 e3bf 99e6 c43f 9421 9fbf c79d 67bf

backbone.5.block.3.0.weight_bias f4 [40]
-0.08951959 0.8079795 -0.12320731 0.62650764 0.12458348 -0.25433138 -0.49291462 -0.7877882
-0.70209306 0.03185781 0.11761326 -0.3308097 0.3689583 -0.87555397 0.8052628 1.540671
0.14700885 0.404837 -0.058135673 -0.26301807 -0.2895344 0.21779044 -0.3117139 0.2429179
-0.5698211 -1.3508046 2.3713748 0.8934697 0.040652104 0.5868188 0.27279994 0.23193096
-0.4069442 0.2632378 -1.0039277 0.9578549 0.26008445 -0.7840778 0.18758686 0.80470514
00000000: 0c56 b7bd bfd7 4e3f 1d54 fcbd ce62 203f
00000010: a025 ff3d b937 82be 4e5f fcbe 7dac 49bf
00000020: 5fbc 33bf 567d 023d 39df f03d e45f a9be
00000030: 1ae8 bc3e 4e24 60bf b425 4e3f b534 c53f
00000040: 7d89 163e cc46 cf3e ac1f 6ebd 4eaa 86be
00000050: da3d 94be 7504 5f3e f798 9fbe 78bf 783e
00000060: ccdf 11bf 2ae7 acbf 9bc4 1740 6eba 643f
00000070: d282 263d c239 163f 6fac 8b3e 4f7f 6d3e
00000080: fd5a d0be 1bc7 863e b480 80bf fb35 753f
00000090: ca29 853e 53b9 48bf c516 403e 2801 4e3f

backbone.6.block.3.0.weight_bias f4 [40]
4.5446143 -0.13292189 -1.4852272 -0.83622235 -0.5185849 -0.31889233 0.18586826 -0.80889237
-0.55602264 -0.23950651 -0.28567886 0.17881645 0.25879917 -0.7990479 0.35743663 0.3742472
-0.46282583 0.0052452623 -1.6760973 -0.6620022 1.5043994 0.72744536 1.4454548 -1.286837
0.02785915 0.7883944 2.712073 0.5226219 3.581 1.0973036 -1.1514475 -0.4365481
0.32542562 1.7070788 -0.95742214 1.0356821 -0.0031290588 -1.8449113 -0.098320514 -1.1134299
00000000: 7b6d 9140 ad1c 08be ed1b bebf ab12 56bf
00000010: fbc1 04bf db45 a3be 4054 3e3e 9213 4fbf
00000020: 8057 0ebf 3241 75be 8044 92be a91b 373e
00000030: 5381 843e 678e 4cbf ef01 b73e 549d bf3e
00000040: 82f7 ecbe 73e0 ab3b 5b8a d6bf fa78 29bf
00000050: 2990 c03f dc39 3a3f aa04 b93f 13b7 a4bf
00000060: df38 e43c 37d4 493f 9b92 2d40 8dca 053f
00000070: 1b2f 6540 7274 8c3f a262 93bf 3c83 dfbe
00000080: 309e a63e 8f81 da3f 9e19 75bf 3b91 843f
00000090: e510 4dbb 0e26 ecbf 445c c9bd df84 8ebf

backbone.7.block.3.0.weight_bias f4 [48]
0.26422113 -0.23569264 0.30550995 -1.8115447 -0.605837 -0.2990861 -0.15838404 -0.6162721
2.4632883 -0.0628962 -0.6654409 0.82587487 -3.3265724 0.20180134 0.2003596 0.20433436
-0.7001483 -0.69490266 -1.1519619 -0.17899352 -1.1785307 1.272749 -0.650125 -0.45840284
0.8161804 0.51407087 0.8378272 0.36060217 -0.9190245 -0.116434865 -0.2242552 -1.4104217
0.11088806 -1.17112 -0.19999899 0.6913856 -1.5912762 -1.8043535 1.1271014 0.7760027
0.90347177 -0.41680297 0.18820621 -0.70218354 -0.8789895 0.19638067 -1.5756874 -0.49253172
00000000: fe47 873e 6959 71be cd6b 9c3e b2e0 e7bf
00000010: 2218 1bbf d021 99be 6d2f 22be 02c4 1dbf
00000020: 84a6 1d40 b9cf 80bd 565a 2abf 896c 533f
00000030: 90e6 54c0 03a5 4e3e 112b 4d3e 073d 513e
00000040: eb3c 33bf 24e5 31bf 7d73 93bf 144a 37be
00000050: 18da 96bf 70e9 a23f 986e 26bf c7b3 eabe
00000060: 33f1 503f 269a 033f d87b 563f d9a0 b83e
00000070: 3145 6bbf 6775 eebd 28a3 65be b388 b4bf
00000080: 4719 e33d 43e7 95bf 89cc 4cbe a6fe 303f
00000090: f0ae cbbf 0ef5 e6bf dc44 903f 1da8 463f
000000a0: ed49 673f 3367 d5be 21b9 403e 4dc2 33bf
000000b0: 7505 61bf 0418 493e 20b0 c9bf 1e2d fcbe

backbone.8.block.3.0.weight_bias f4 [48]
1.9815432 -0.09705724 -0.52309775 0.6726995 -1.3496847 0.52259105 -0.3257069 -0.3797181
2.1420028 -0.21287103 0.00049813424 0.58370847 -0.26487076 -1.0151144 -0.22832473 0.2267781
-0.44947323 0.20296556 0.083917 0.1382881 -0.18387559 -0.76259303 0.3981489 0.1484147
0.6854934 -0.1858109 0.06473186 0.18959178 1.0029035 0.15528508 0.115702406 0.2800114
0.21618688 -0.48663118 -0.15464751 -0.2612999 -1.54361 -0.035542965 0.2134309 0.58354485
0.7438277 0.5976955 0.11488587 0.4031463 1.430702 0.20874117 0.17613308 0.22531879
00000000: 35a3 fd3f f2c5 c6bd bce9 05bf 0936 2c3f
00000010: 78c2 acbf 87c8 053f 0ec3 a6be 696a c2be
00000020: 9316 0940 ddfa 59be 3995 023a eb6d 153f
00000030: 249d 87be 45ef 81bf f5cd 69be 8538 683e
00000040: 5b21 e6be 34d6 4f3e addc ab3d 659b 0d3e
00000050: e249 3cbe 4c39 43bf 2cda cb3e 06fa 173e
00000060: 7f7c 2f3f 3645 3ebe 2392 843d 5924 423e
00000070: 245f 803f 0d03 1f3e 62f5 ec3d a75d 8f3e
00000080: 1860 5d3e b927 f9be eb5b 1ebe 1ac9 85be
00000090: 0395 c5bf 8095 11bd a18d 5a3e 3263 153f
000000a0: 7e6b 3e3f 9302 193f 4849 eb3d 3169 ce3e
000000b0: 3e21 b73f 3fc0 553e 3b5c 343e f8b9 663e
